Lecture 4/CS1_Physical_inputs_ANN.pth (torch, 2088 bytes, 3 tensors)

0.weight f4 [10, 1]
-0.87682515 0.59017146 1.145483 -0.13449118 -0.43205243 0.43930632 1.0914752 0.76113725
-0.8161267 -1.1207616
00000000: 9d77 60bf 7a15 173f 309f 923f 0eb8 09be
00000010: fa35 ddbe c2ec e03e 76b5 8b3f e4d9 423f
00000020: aeed 50bf 1e75 8fbf

0.bias f4 [10]
-0.17457458 0.9392111 0.37028673 0.69190574 0.6843296 -0.74133307 0.20480458 0.0033320081
-0.10563029 -0.43008992
00000000: aec3 32be 2370 703f 3996 bd3e bc20 313f
00000010: 3a30 2f3f 01c8 3dbf 4bb8 513e d25d 5a3b
00000020: b254 d8bd bf34 dcbe

2.weight f4 [1, 10]
0.563247 -0.6355038 -0.42265153 -0.40753847 -0.35971382 0.15211958 -0.48182636 -0.36806145
0.55113566 0.31022194
00000000: f530 103f 61b0 22bf c865 d8be e2a8 d0be
00000010: 692c b8be 3cc5 1b3e f2b1 f6be 8d72 bcbe
00000020: 3a17 0d3f 69d5 9e3e
